eeg_model.pth (torch, 39707 bytes, 12 tensors)

firstconv.0.weight f4 [16, 1, 1, 51]
0.1217436 -0.051390864 -0.05378252 -0.13094996 0.0795102 0.02968105 -0.061196603 0.13746656
-0.11397052 0.092896245 -0.095944986 -0.13009764 0.21428996 -0.021091012 -0.06926614 -0.14249007
0.16256686 0.12248344 0.08718283 0.17008987 0.043921746 -0.1053179 -0.026645046 -0.41077003
-0.77533734 -0.25813216 -0.54778737 -0.28211963 0.06501426 0.103168815 -0.013299869 -0.013161194
0.19041464 0.08949581 0.0061485227 -0.0979749 -0.058452465 0.42742702 0.880912 -0.102455534
-0.018449558 -0.019251706 0.027441649 0.10546697 0.13106827 -0.0842683 -0.10858783 0.0122206155
0.004560112 0.042398438 -0.022482183 0.07109878 0.08458147 -0.08692212 -0.10951959 -0.1064286
-0.04459407 -0.09320807 0.13907333 -0.09112118 0.022162467 -0.1250134 -0.116503865 0.15564501
-0.047847003 -0.09273154 -0.014854343 -0.114647195 0.29271013 -0.22967863 -0.2796343 0.12610397
-0.23363316 0.29095665 -0.07699027 -0.12017903 -1.5234772 -0.40570474 0.06872889 0.14111409
0.011844978 -0.14135997 -0.23755223 -0.08891247 0.24429898 -0.09188944 0.084458135 -0.28685006
-0.113448374 0.22164415 0.005663963 -0.01789618 -0.10564697 0.12483175 0.030407246 -0.050751954
-0.101145744 0.11739912 0.013118446 0.07634714 -0.11909588 0.12076786 -0.11546037 -0.11553899
-0.0058315736 -0.12502377 0.026932038 0.13740036 0.13387813 0.021388713 -0.079116836 -0.010529233
0.1213587 -0.12361528 0.12440618 0.08316156 0.010357161 -0.19679229 0.30676347 0.0024952963
0.14934273 -0.1965424 -0.044978287 -0.17237812 0.25838488 0.07077502 -0.8875358 0.16140024
0.050071236 -0.1976143 0.08846166 0.06638951 -0.049384642 -0.14404124 -0.02855259 0.2030718
-0.057869837 0.089295365 0.0696062 0.04023938 1.1876804 -0.035406925 -0.13060632 -0.0165699
-0.068521164 0.001640319 0.002256945 -0.0856696 -0.13004166 0.047772184 0.014803751 0.06760972
0.042196907 0.10411126 0.07903833 -0.11157766 0.11820968 1.2002009e-05 0.08118612 0.028727032
-0.119363725 0.0007275988 0.13294062 -0.0538667 0.096246906 0.19172046 -0.13587159 -0.10466438
0.14286399 -0.21852495 -0.10732703 0.2334862 -0.21500388 0.10560359 0.14272422 -0.092155844
0.061250556 0.16888256 2.3153737 -0.1659085 0.12631647 -0.043991845 -0.21051434 0.18251412
-0.032080166 -0.19351043 0.105555154 -0.07691208 0.09116861 0.15336905 0.16980052 -0.003606046
0.104485326 -0.06071407 0.1341865 0.09177677 0.061194133 -0.13435523 -0.038307607 0.11977061
-0.06788461 0.0065065073 0.12206652 -0.104009956 -0.07706493 -0.01769752 0.0955151 0.022808189
0.12170983 -0.10138941 -0.05942904 -0.11411503 -0.013989517 0.09870281 -0.09783532 -0.078864165
0.3732643 0.31022146 0.04992294 -0.18003027 -0.21218382 -0.11606836 -0.17957053 0.1853368
0.022078576 0.060463276 -0.27661827 -0.102909505 -0.19320752 -0.24983834 -0.70721 -0.35213038
0.014784189 0.026563663 0.09018565 0.06030578 0.072290815 -0.109810255 -0.030405642 -0.24704008
-0.2026632 -0.3011118 -0.24675958 -0.0107264565 -0.007957732 -0.106558405 -0.12914693 -0.13962895
0.028299 -0.021880696 0.10128097 0.06548738 0.009208211 0.0023359847 -0.04541323 0.08540953
00000000: b554 f93d 3a7f 52bd 0f4b 5cbd bf17 06be
00000010: 3ed6 a23d ac25 f33c 4aa9 7abd 09c4 0c3e
00000020: 6069 e9bd 6340 be3d ce7e c4bd 5138 05be
00000030: d46e 5b3e 0fc7 acbc 68db 8dbd ebe8 11be
00000040: ed77 263e 99d8 fa3d e98c b23d 0a2c 2e3e
00000050: 4ae7 333d e9b0 d7bd b646 dabc 7350 d2be
00000060: 827c 46bf e629 84be cb3b 0cbf fc71 90be
00000070: 3226 853d 2c4a d33d b2e7 59bc 0ca2 57bc
00000080: 0efc 423e 9449 b73d 8c79 c93b 10a7 c8bd
00000090: da6b 6fbd b7d7 da3e 7383 613f 35d4 d1bd
000000a0: 8723 97bc c1b5 9dbc 4fcd e03c 11ff d73d
000000b0: c336 063e dc94 acbd 4c63 debd fa38 483c
000000c0: fe6c 953b fca9 2d3d 8e2c b8bc 3d9c 913d
000000d0: 0d39 ad3d 3904 b2bd cf4b e0bd 3df7 d9bd
000000e0: 46a8 36bd dfe3 bebd 3d69 0e3e be9d babd
000000f0: 108e b53c 8303 00be 9499 eebd 6861 1f3e
00000100: 38fb 43bd 09ea bdbd a15f 73bc 26cc eabd
00000110: 1ade 953e e030 6bbe 3a2c 8fbe 6621 013e
00000120: 883d 6fbe 45f8 943e 13ad 9dbd 6c20 f6bd
00000130: 4d01 c3bf 88b8 cfbe bbc1 8c3d 3680 103e
00000140: 7011 423c abc0 10be e440 73be be17 b6bd
00000150: 8329 7a3e 8830 bcbd 63f8 ac3d 03de 92be
00000160: 9f57 e8bd aff6 623e c498 b93b 029b 92bc
00000170: 705d d8bd caa7 ff3d 9e18 f93c 48e1 4fbd
00000180: 8025 cfbd f36e f03d c0ee 563c e45b 9c3d
00000190: 8ae8 f3bd 2455 f73d 7d76 ecbd b59f ecbd
000001a0: c916 bfbb 3b06 00be 94a0 dc3c aeb2 0c3e
000001b0: 5917 093e 6237 af3c 0208 a2bd ce82 2cbc
000001c0: e98a f83d 022a fdbd abc8 fe3d 9c50 aa3d
000001d0: 15b1 293c eb83 49be 1a10 9d3e 2088 233b
000001e0: 4ded 183e 6942 49be 273b 38bd e483 30be
000001f0: 064b 843e 7ef2 903d 8c35 63bf 1b46 253e
00000200: 7f17 4d3d 675b 4abe 632b b53d 39f7 873d
00000210: 8d47 4abd 8c7f 13be 1fe7 e9bc 0ef2 4f3e
00000220: ec08 6dbd 7de0 b63d b28d 8e3d 0cd2 243d
00000230: e905 983f da06 11bd aabd 05be 99bd 87bc
00000240: d354 8cbd f9ff d63a 41e9 133b 8b73 afbd
00000250: a429 05be c4ac 433d 6f8b 723c f776 8a3d
00000260: aad6 2c3d 4938 d53d d9de a13d d482 e4bd
00000270: eb17 f23d 3c5c 4937 e944 a63d f454 eb3c
00000280: f874 f4bd 54bc 3e3a 9621 083e 54a3 5cbd
00000290: 191d c53d 5e52 443e ec21 0bbe 475a d6bd
000002a0: f04a 123e 01c5 5fbe 46ce dbbd 0217 6f3e
000002b0: fa29 5cbe b246 d83d 4c26 123e 34bc bcbd
000002c0: dde1 7a3d 8def 2c3e 152f 1440 ebe3 29be
000002d0: 1b59 013e cb30 34bd 1291 57be fbe4 3a3e
000002e0: 7e66 03bd 9927 46be 4d2d d83d 1584 9dbd
000002f0: 9cb6 ba3d c70c 1d3e 30e0 2d3e 6a53 6cbb
00000300: 67fc d53d 51af 78bd 3068 093e 76f5 bb3d
00000310: b3a6 7a3d 6b94 09be 70e8 1cbd 4b4a f53d
00000320: 1607 8bbd 8a34 d53b 03fe f93d 2c03 d5bd
00000330: 38d4 9dbd 64fa 90bc 6c9d c33d 3dd8 ba3c
00000340: 0143 f93d 40a5 cfbd dd6b 73bd 24b5 e9bd
00000350: 4a34 65bc b324 ca3d e25d c8bd 8983 a1bd
00000360: 801c bf3e 59d5 9e3e ff7b 4c3d db59 38be
00000370: b746 59be 40b5 edbd 56e1 37be eec8 3d3e
00000380: 21de b43c 57a8 773d e9a0 8dbe 38c2 d2bd
00000390: 31d8 45be 9fd5 7fbe b70b 35bf 6f4a b4be
000003a0: 6239 723c 0a9c d93c 41b3 b83d 3203 773d
000003b0: 350d 943d 33e4 e0bd 4115 f9bc 13f8 7cbe
000003c0: f186 4fbe 532b 9abe 8bae 7cbe 05be 2fbc
000003d0: 2661 02bc 4b3b dabd 183f 04be e4fa 0ebe
000003e0: 4ed3 e73c 253f b3bc 666c cf3d 3f1e 863d
000003f0: 09de 163c 5217 193b 3903 3abd 31eb ae3d

firstconv.1.weight f4 [16]
0.15138541 0.14339565 0.14127274 0.29252604 0.043405227 0.014889521 0.011298067 0.32997474
0.0048611397 2.5089798 0.045704775 0.3529479 0.02681547 0.0142436335 0.4967682 0.3564271
00000000: c704 1b3e 4fd6 123e cda9 103e f9c5 953e
00000010: aec9 313d 2df3 733c 871b 393c 73f2 a83e
00000020: 324a 9f3b 2093 2040 ee34 3b3d 96b5 b43e
00000030: 1eac db3c 215e 693c 6758 fe3e 9d7d b63e

firstconv.1.bias f4 [16]
0.101081006 0.017571859 0.08448033 0.026762538 -0.0050896513 0.0023903763 -0.0058925794 -0.11771907
-0.004242938 -0.18255687 -0.01651274 -0.10856139 0.028299272 -0.0013603 -0.09040634 0.087961555
00000000: 8f03 cf3d dcf2 8f3c 0604 ad3d 1c3d db3c
00000010: 17c7 a6bb dca7 1c3b 8a16 c1bb b216 f1bd
00000020: 5808 8bbb 30f0 3abe ba45 87bc 6f55 debd
00000030: e0d3 e73c 184c b2ba f626 b9bd 3025 b43d

firstconv.1.running_mean f4 [16]
-6917.006 -9491.969 -1937.7056 10232.445 -7732.4854 31.285198 -2600.899 1581.0208
2250.26 12660.506 8438.135 -6914.767 1692.5728 -1817.6162 -8163.7627 -3705.7146
00000000: 0c28 d8c5 e04f 14c6 9436 f2c4 c8e1 1f46
00000010: e2a3 f1c5 1648 fa41 628e 22c5 aaa0 c544
00000020: 29a4 0c45 06d2 4546 8ad8 0346 2316 d8c5
00000030: 5492 d344 b833 e3c4 1a1e ffc5 6f9b 67c5

firstconv.1.running_var f4 [16]
8.550072e+06 1.2635215e+06 6.089009e+06 712554.25 3.5440188e+06 3.3834722e+06 1.588007e+06 1.6133079e+07
1.7353922e+06 10217.53 2.6990845e+06 6.5826505e+06 7.0933395e+06 2.2906378e+06 3.5214125e+06 1.4125176e+06
00000000: b876 024b 0c3d 9a49 62d2 b94a a4f6 2d49
00000010: 4b4f 584a c182 4e4a 38d9 c149 d72b 764b
00000020: 02d7 d349 1fa6 1f46 32bd 244a f5e2 c84a
00000030: b778 d84a 37cf 0b4a 12ee 564a 2d6d ac49

separableConv.0.weight f4 [32, 16, 1, 15]
0.13151743 -0.11540099 -0.9896242 -0.64420927 -0.68958163 -0.035418186 0.13285163 0.0398984
0.015975296 0.051998477 -0.129086 -0.065732405 -0.09247919 0.05160421 -0.10438608 0.3331586
-0.18233547 -0.19681153 0.10677521 -0.3985945 0.0979159 0.10957909 -0.14620663 0.24738738
0.07030116 0.09676448 -0.058415934 -0.15267557 0.12413286 0.12604469 0.23348948 -0.30139914
-0.771567 -0.46288636 -0.5064887 0.0076043727 0.025413629 0.016134445 0.12716448 0.23902717
0.21734375 -0.10603986 -0.3694204 -0.17487037 0.022203794 0.11130624 -0.27645913 0.39275894
-0.17157476 0.020756226 0.20699786 -0.2967923 -0.036263898 -0.12838168 -0.28470013 0.06769079
0.36766738 0.052713238 0.15635055 0.04474001 -0.42437652 -0.010590583 0.1640058 0.21871637
0.60365206 0.33725533 -0.22806098 -0.28153294 -0.22958475 -0.12385067 0.06368301 0.22704679
0.49249524 0.1935408 -0.10932605 0.2047846 0.113556705 0.092324704 0.08490816 0.049065016
0.08422328 0.063773654 0.09338715 0.032406744 -0.041845612 -0.11208132 -0.19856325 -0.13919336
-0.1766057 -0.19586854 -0.022684071 0.03281086 0.17833222 0.19083437 0.5887506 0.08434923
-0.26761836 -0.2119248 -0.29054767 -0.12034258 0.42978513 0.22220054 0.4552485 0.5735366
-0.12517783 -0.090299144 0.107142836 0.37356442 0.51698923 0.79407877 0.13280754 -0.09405056
-0.10507376 -0.024555411 0.10659482 0.32110095 -0.1013826 0.011976527 -0.12812126 -0.124990195
-0.26107907 -0.36897182 -0.17905863 -0.04799658 0.052993577 -0.047497407 -0.021898406 0.1792257
-0.08826487 -0.07000182 -0.24701282 0.062423997 0.11103137 -0.010399798 0.049626082 0.08906442
-0.0053518475 0.3901459 0.05823459 0.30546102 -0.087715834 -0.06830627 -0.19697957 -0.063042924
0.10765725 0.13344075 0.19181584 -0.08680357 -0.020397754 -0.18780933 0.021336632 -0.2854176
0.047378153 0.26272032 0.30994064 0.15212435 -0.08453296 0.028787706 -0.22721812 0.028031604
-0.35682526 0.077298306 0.06386205 -0.04772464 0.22706042 -0.08090328 0.17563006 0.4909021
0.37929204 0.5178617 0.04496047 -0.13183932 -0.06818032 -0.011301493 -0.11488237 0.23087656
0.44304216 0.33979148 0.052211788 -0.34447366 0.2669584 -0.11307433 -0.78465676 -0.6132349
-0.70487684 -0.12869729 0.13062115 0.1205863 0.060188007 0.13133317 0.05622274 -0.090374954
-0.2755175 -0.10872577 -0.06194372 -0.017586773 0.16983932 0.20438404 -0.18831258 0.07927689
-0.13044947 -0.06261112 0.13267441 0.18516742 0.1628538 0.0014016526 -0.3756223 -0.12171272
-0.16535088 0.1607675 -0.19257759 0.1014156 0.23326555 0.45262286 0.41830868 0.052286074
-0.0489881 -0.05812318 -0.047329683 -0.042901844 0.12543982 0.118115485 -0.024746066 -0.005515253
-0.35560843 0.06929422 0.20167166 -0.4080459 0.04086273 -0.027781727 -0.0041561504 -0.100848116
-0.0043416307 0.024693599 0.37119356 0.17733227 0.07954193 -0.26787582 -0.3318548 -0.39514074
-0.11526517 -0.33744022 -0.4383271 -0.22100131 -0.20345514 -0.0015691592 -0.08812794 -0.04344682
0.05875425 0.014223566 -0.15360798 -0.098756395 -0.14067623 -0.28680965 -0.36599138 -0.21303917
00000000: 81ac 063e 5b57 ecbd 0358 7dbf e6ea 24bf
00000010: 6c88 30bf a912 11bd 420a 083e 816c 233d
00000020: a0de 823c 5bfc 543d 1f2f 04be b69e 86bd
00000030: bb65 bdbd f05e 533d 5ec8 d5bd c493 aa3e
00000040: 26b6 3abe f688 49be f6ac da3d 9414 ccbe
00000050: 2288 c83d 006b e03d 31b7 15be 1e53 7d3e
00000060: 0efa 8f3d 752c c63d 8c45 6fbd fc56 1cbe
00000070: 5e39 fe3d dc11 013e de17 6f3e fd50 9abe
00000080: 6a85 45bf 71ff ecbe 3ea9 01bf 1a2e f93b
00000090: 3e30 d03c 622c 843c 6837 023e 8ac3 743e
000000a0: 5c8f 5e3e 6d2b d9bd ac24 bdbe 3811 33be
000000b0: bbe4 b53c 87f4 e33d 0d8c 8dbe b317 c93e
000000c0: 4bb1 2fbe f608 aa3c 3ff7 533e 29f5 97be
000000d0: 7489 14bd 7d76 03be 37c4 91be 78a1 8a3d
000000e0: e63e bc3e d6e9 573d 5c1a 203e 4d41 373d
000000f0: e147 d9be 2084 2dbc 23f1 273e 2ff7 5f3e
00000100: f188 1a3f bbac ac3e d188 69be 1625 90be
00000110: 4418 6bbe 6ca5 fdbd 3d6c 823d f47e 683e
00000120: 5628 fc3e 8f2f 463e 56e6 dfbd 0eb3 513e
00000130: 6b90 e83d bc14 bd3d 54e4 ad3d 66f8 483d
00000140: 417d ac3d c39b 823d c341 bf3d efbc 043d
00000150: 4e66 2bbd e48a e5bd 2a54 4bbe b488 0ebe
00000160: 20d8 34be c391 48be f2d3 b9bc ae64 063d
00000170: b99c 363e 166a 433e 5cb8 163f 4abf ac3d
00000180: 4605 89be d102 59be aac2 94be 2c76 f6bd
00000190: cc0c dc3e 8a88 633e 5516 e93e 4bd3 123f
000001a0: 9e2e 00be c2ee b8bd b46d db3d d643 bf3e
000001b0: 6859 043f bf48 4b3f b3fe 073e 949d c0bd
000001c0: e930 d7bd 6e28 c9bc 634e da3d 5867 a43e
000001d0: aea1 cfbd 3239 443c 3832 03be dcfa ffbd
000001e0: 28ac 85be e0e9 bcbe 255b 37be 1098 44bd
000001f0: cb0f 593d a48c 42bd 4964 b3bc f186 373e
00000200: 36c4 b4bd 1d5d 8fbd eef0 7cbe 4eb0 7f3d
00000210: 6a64 e33d ea63 2abc b844 4b3d 6867 b63d
00000220: 8d5e afbb 34c1 c73e 6587 6e3d 6365 9c3e
00000230: 5ca4 b3bd 28e4 8bbd 03b5 49be a61c 81bd
00000240: 677b dc3d b1a4 083e 5f6b 443e 12c6 b1bd
00000250: 3119 a7bc 1751 40be 29ca ae3c 4122 92be
00000260: 980f 423d 4783 863e 8ab0 9e3e 7cc6 1b3e
00000270: 9e1f adbd 32d4 eb3c deab 68be 89a2 e53c
00000280: cdb1 b6be 934e 9e3d 1bca 823d ea7a 43bd
00000290: 8782 683e 9eb0 a5bd 5ed8 333e 8557 fb3e
000002a0: 9132 c23e 9692 043f 7828 383d e300 07be
000002b0: 20a2 8bbd e629 39bc 7347 ebbd e86a 6c3e
000002c0: 6cd6 e23e 26f9 ad3e 07dc 553d da5e b0be
000002d0: c5ae 883e 8493 e7bd 44df 48bf f6fc 1cbf
000002e0: cf72 34bf 39c9 03be 8dc1 053e f3f5 f63d
000002f0: b387 763d 347c 063e d149 663d 8116 b9bd
00000300: a110 8dbe 9eab debd b3b8 7dbd 2312 90bc
00000310: 5cea 2d3e 0d4a 513e 03d5 40be ec5b a23d
00000320: 8c94 05be 423a 80bd cddb 073e 879c 3d3e
00000330: 26c3 263e a8b7 b73a 9151 c0be 8544 f9bd
00000340: be51 29be 3ca0 243e 0f33 45be fbb2 cf3d
00000350: 2add 6e3e 2fbe e73e 8e2c d63e ec29 563d
00000360: bfa7 48bd 9212 6ebd c5dc 41bd d8b9 2fbd
00000370: 4c73 003e 88e6 f13d 43b8 cabc 4cb9 b4bb
00000380: 4f12 b6be 21ea 8d3d 0483 4e3e 64eb d0be
00000390: ae5f 273d 8196 e3bc 5130 88bb 7589 cebd
000003a0: 3d44 8ebb 3b4a ca3c 150d be3e 9796 353e
000003b0: e1e6 a23d 0527 89be dfe8 a9be e34f cabe
000003c0: 2510 ecbd f7c4 acbe 696c e0be 2b4e 62be
000003d0: 8b56 50be 3fac cdba 6c7c b4bd 4bf5 31bd
000003e0: 4ca8 703d f609 693c 694b 1dbe cb40 cabd
000003f0: 6e0d 10be b7d8 92be 3963 bbbe f126 5abe

separableConv.1.weight f4 [32]
0.63859296 2.2619965 1.2868633 2.2043827 1.6966698 1.590377 0.38182852 1.7219051
1.1531866 2.0789344 3.0976512 1.4752525 0.79533535 1.7813934 1.4020067 1.4637145
1.730446 1.5208592 2.041509 0.6412165 1.7773165 1.8476504 2.9649544 1.0396954
2.0188167 1.5993726 1.6601546 1.997197 1.4785522 1.849697 2.1370442 0.6453569
00000000: d47a 233f 8dc4 1040 f0b7 a43f 9b14 0d40
00000010: 7a2c d93f 7991 cb3f 077f c33e 6367 dc3f
00000020: 9e9b 933f 430d 0540 eb3f 4640 13d5 bc3f
00000030: 199b 4b3f b304 e43f f574 b33f ff5a bb3f
00000040: 417f dd3f 84ab c23f 15a8 0240 c426 243f
00000050: 1b7f e33f cf7f ec3f d0c1 3d40 bd14 853f
00000060: 4b34 0140 3eb8 cc3f f27f d43f 27a4 ff3f
00000070: 3341 bd3f dfc2 ec3f 55c5 0840 1c36 253f

separableConv.1.bias f4 [32]
-0.01907572 -0.4744337 -0.25176623 -0.34187078 -0.50287527 -0.14589293 -0.0072374614 -0.53790957
-0.22753319 -0.5604121 -0.48091787 -0.35998738 -0.07531702 -0.3957954 -0.19193418 -0.03391224
-0.1267035 -0.32174516 -0.2286786 -0.14631638 -0.28649744 -0.5176598 -0.52420926 -0.16662124
-0.47846392 -0.3235635 -0.32133585 -0.3675566 -0.23087475 -0.21821521 -0.3731781 -0.050325837
00000000: af44 9cbc f9e8 f2be 81e7 80be b009 afbe
00000010: 6fbc 00bf f564 15be 3a28 edbb 71b4 09bf
00000020: 76fe 68be 2b77 0fbf de3a f6be 4450 b8be
00000030: cf3f 9abd b2a5 cabe 658a 44be 90e7 0abd
00000040: 90be 01be c8bb a4be b92a 6abe f6d3 15be
00000050: cbaf 92be 5a85 04bf 9432 06bf c29e 2abe
00000060: 39f9 f4be 1daa a5be 2286 a4be 6130 bcbe
00000070: 6e6a 6cbe cf73 5fbe 3311 bfbe 7722 4ebd

separableConv.1.running_mean f4 [32]
-1.0694746 -0.2990008 0.13384023 -0.34911746 0.029177252 -0.49460176 -0.19712874 -0.2481795
0.19411942 -0.16554195 -0.7026644 -0.899845 -0.088422716 -0.31961596 -0.4213436 -0.89396155
-0.3317581 -0.036524158 -0.34778526 -0.9141648 -0.11423459 -0.0755076 -0.4509891 -0.568949
-0.20620218 -0.028621618 -0.10677711 -0.6878772 -0.19896902 -0.29763955 -0.49737063 -0.22421376
00000000: 8be4 88bf a216 99be 6a0d 093e 86bf b2be
00000010: 2205 ef3c 713c fdbe 1edc 49be c422 7ebe
00000020: 3ec7 463e d483 29be d0e1 33bf 3e5c 66bf
00000030: f816 b5bd b4a4 a3be 59ba d7be aada 64bf
00000040: 33dc a9be 5b9a 15bd e910 b2be b406 6abf
00000050: d3f3 e9bd bba3 9abd 0be8 e6be a4a6 11bf
00000060: aa26 53be e277 eabc f5ad dabd b818 30bf
00000070: 89be 4bbe 3664 98be 5da7 febe 4b98 65be

separableConv.1.running_var f4 [32]
8.573812 2.0876782 2.705551 2.3490086 1.9852661 4.801533 6.640631 3.0396714
3.9115393 2.3673964 2.8692107 5.371683 5.973097 3.6000304 1.7139645 6.6281614
1.8234997 2.052481 2.426546 5.85142 1.54383 1.3276428 1.5510178 6.4347057
2.8994973 1.6546657 2.8796213 4.6485505 2.3326948 1.8324907 3.5862007 8.373199
00000000: 552e 0941 859c 0540 bf27 2d40 2856 1640
00000010: 331d fe3f 29a6 9940 0d80 d440 fa89 4240
00000020: a956 7a40 6c83 1740 26a1 3740 d4e4 ab40
00000030: 9c23 bf40 e666 6640 3063 db3f e619 d440
00000040: 7068 e93f d95b 0340 884c 1b40 d53e bb40
00000050: 399c c53f 33f0 a93f c087 c63f 1ce9 cd40
00000060: 5d91 3940 16cc d33f b74b 3840 edc0 9440
00000070: df4a 1540 0e8f ea3f 5084 6540 a0f8 0541

classify.0.weight f4 [2, 32]
-0.025627367 -0.40226528 0.15063527 0.7620048 -0.7435159 0.19993794 0.010696411 -1.0157636
0.14301102 -0.83406895 -0.58862454 -0.1524302 -0.08687226 0.56538934 -0.38687417 0.12723692
0.30381545 0.75047266 -0.24827206 -0.14702162 0.8839098 -0.83720124 -0.7013053 -0.08220477
0.72549444 0.5406342 0.5427082 0.8195405 0.47498626 0.8728458 0.63326466 0.06553399
0.035040278 0.22321768 -0.24673931 -0.8485142 0.8485444 -0.14575674 0.01120833 0.8689333
-0.18204316 0.85801053 0.4848716 0.18710706 0.12706782 -0.32979694 0.5285391 -0.1348458
-0.37470922 -0.85198444 0.24653286 -0.07597567 -0.7490597 0.9050636 0.62074775 0.0023875087
-0.7377071 -0.6490647 -0.51291275 -0.708776 -0.48427698 -1.1353446 -0.8521645 0.06742091
00000000: 7cf0 d1bc b7f5 cdbe 2240 1a3e bf12 433f
00000010: 0f57 3ebf 88bc 4c3e 0040 2f3c 8b04 82bf
00000020: 7b71 123e 8b85 55bf 19b0 16bf aa16 1cbe
00000030: 15ea b1bd 5bbd 103f 5f14 c6be 654a 023e
00000040: b38d 9b3e fa1e 403f 083b 7ebe d68c 16be
00000050: ea47 623f d252 56bf bf88 33bf f95a a8bd
00000060: 01ba 393f 0167 0a3f edee 0a3f 68cd 513f
00000070: 6631 f33e d372 5f3f a21d 223f af36 863d
00000080: 6586 0f3d 2d93 643e 3ba9 7cbe 3a38 59bf
00000090: 353a 593f 4141 15be 25a3 373c 6a72 5e3f
000000a0: 8669 3abe 94a6 5b3f 1741 f83e fe98 3f3e
000000b0: 111e 023e 25db a8be 574e 073f 0415 0abe
000000c0: e3d9 bfbe a71b 5abf 1c73 7c3e 2299 9bbd
000000d0: 60c2 3fbf 40b2 673f 53e9 1e3f c077 1c3b
000000e0: 5fda 3cbf 1b29 26bf 404e 03bf 5872 35bf
000000f0: 27f3 f7be f952 91bf 7427 5abf f913 8a3d

classify.0.bias f4 [2]
0.12253008 -0.04821695
00000000: 0df1 fa3d 237f 45bd
