eeg_model.pth (torch, 27815 bytes, 6 tensors)

conv1.weight f4 [16, 1, 3]
-0.13105892 0.24416775 -0.19372034 0.11837597 -0.27639374 0.009918649 0.23491985 -0.21620487
-0.1789377 -0.026517322 0.26859578 -0.29119223 -0.45016232 -0.24266337 0.2987396 -0.44820315
0.39211926 -0.026980441 -0.49556994 0.2326287 -0.29881772 -0.5366516 0.16785958 -0.45137283
-0.4202822 0.21976815 0.15305246 0.14497335 0.0041558645 -0.17202245 0.45126992 -0.31370255
-0.32307366 -0.31020778 0.28676695 0.013591965 -0.45795852 0.15079178 0.26011053 -0.50811166
-0.24143708 -0.06385782 -0.36949295 0.24619173 -0.04692175 0.29593956 -0.3701969 -0.13804519
00000000: 4f34 06be 1c07 7a3e a05e 46be 1a6f f23d
00000010: 7b83 8dbe d481 223c d48e 703e cf64 5dbe
00000020: 723b 37be db3a d9bc 6385 893e 2617 95be
00000030: ad7b e6be bf7c 78be 66f4 983e e27a e5be
00000040: dbc3 c83e 1606 ddbc 58bb fdbe 3836 6e3e
00000050: a3fe 98be 0062 09bf 62e3 2b3e 571a e7be
00000060: 3b2f d7be e70a 613e c9b9 1c3e e573 143e
00000070: eb2d 883b a726 30be da0c e73e 9f9d a0be
00000080: e969 a5be 8ed3 9ebe 1ed3 923e d5b0 5e3c
00000090: 8a79 eabe 2969 1a3e 352d 853e 9b13 02bf
000000a0: 483b 77be e4c7 82bd 2e2e bdbe af19 7c3e
000000b0: 0531 40bd 6485 973e 738a bdbe b85b 0dbe

conv1.bias f4 [16]
-0.38895214 -0.36876377 0.3852957 -0.24336153 -0.07879792 0.045205425 0.22164933 -0.25286305
-0.2913127 -0.4262563 -0.45120054 0.11680865 0.044796977 -0.2602118 0.32529828 -0.2310611
00000000: bc24 c7be 9bce bcbe 7a45 c53e c433 79be
00000010: ce60 a1bd 5329 393d 0bf8 623e 4477 81be
00000020: f026 95be 443e dabe c203 e7be 6039 ef3d
00000030: 097d 373d 7b3a 85be 7f8d a63e 489b 6cbe

l1.weight f4 [64, 96]
-0.0020537795 -0.030060517 0.079156324 0.045008913 -0.093464606 -0.06818942 -0.12406284 -0.004886109
-0.021759957 -0.027866276 -0.046210196 0.005959088 -0.08988287 0.013563182 -0.09435542 0.07182185
-0.043931037 0.040271364 -0.12214406 0.07073393 0.057083596 -0.018735785 0.05761586 0.03200984
-0.06732315 0.02176133 0.09654928 -0.006769402 -0.043688174 0.08816674 -0.13752306 -0.044101987
0.16903621 -0.034288034 0.04274406 0.014207963 -0.044169128 0.048133157 -0.028691908 0.0036973013
0.08106274 0.03879982 -0.07064662 -0.06042674 -0.01126303 -0.054801278 0.00033791925 -0.13335468
-0.15143725 0.05901163 0.1464495 0.10194334 -0.083413385 -0.18093997 -0.04100103 0.03207054
0.03028231 0.033553127 -0.053183112 -0.06759051 0.035480913 0.058978315 -0.010474021 0.14434496
0.002480487 0.07491694 -0.10295677 0.09132204 0.01278816 -0.08838727 0.037096966 -0.11905416
0.041604538 0.0054298453 0.060790848 -0.0122984005 -0.11288709 0.01749125 -0.09417002 0.01619135
0.02524718 0.021107154 -0.0010279198 -0.03889232 0.09686125 -0.04550669 0.058783576 0.057156138
0.048167888 -0.11476716 -0.021606201 0.030361548 0.034950595 -0.007346883 -0.09184751 -0.052828576
-0.09766806 0.0792397 0.05739505 0.0716006 -0.001036569 0.073606886 -0.016927889 -0.06954792
0.07650567 -0.09354129 -0.036554538 -0.09125495 0.05119365 0.09433755 0.02017786 0.082014196
-0.0206471 0.08248477 -0.062338296 -0.048968315 -0.071220085 -0.038961582 0.038114112 -0.03173288
-0.09847588 -0.10307606 -0.019052226 -0.061987378 0.039786104 0.05013977 0.01593285 0.0035678218
0.03773356 -0.023198979 -0.005542503 0.0122102145 -0.030826597 0.0030417356 -0.047873877 0.09764259
-0.07466142 -0.060027048 -0.013130293 -0.07166793 -0.025181226 0.060790192 0.05476628 -0.027892694
-0.015222164 0.062478248 0.06112766 -0.041594 -0.004370758 -0.04303271 0.0024615075 -0.066827826
-0.11232562 0.0728025 -0.048462655 0.018467203 -0.028360438 -0.041705836 0.05058555 0.063360676
-0.013532146 -0.10624498 -0.119608864 -0.02318438 -0.014953236 -0.080831915 -0.10769906 -0.078087136
0.050108436 -0.0038254892 -0.06907103 -0.1255078 0.0687779 0.02218596 -0.023518445 0.021563029
-0.07340963 -0.013311711 0.090790585 0.042614777 0.073282 -0.021818422 -0.08990307 0.012311532
-0.009784117 0.0024935626 0.017399013 -0.04398305 -0.09937968 -0.020016635 -0.07823771 0.07982832
-0.028592601 -0.09246679 0.042617645 -0.0637022 -0.07163674 0.08234001 0.08921337 -0.06977882
-0.08442557 0.08193611 -0.07943393 0.005201744 -0.07165148 -0.06790477 -0.049959682 0.05143555
0.004917668 0.068472326 0.06100444 0.016931672 0.008989029 -0.09292935 0.0061496845 -0.09034102
0.06809713 0.0684048 -0.05042337 -0.06519014 -0.020159036 -0.005673792 -0.07226277 -0.100451246
-0.12349846 -0.083768025 -0.10970422 0.019036919 -0.0064855698 0.0027581651 -0.02130708 -0.08079193
-0.06255743 -0.04277656 -0.056788746 -0.011153014 0.037032515 -0.08938396 0.10170143 -0.008262596
-0.0006593602 -0.11384398 -0.049162056 -0.09690106 0.025870698 -0.031963184 0.033798564 0.04550869
0.050774235 0.016889917 -0.085078456 0.021421969 -0.042672288 -0.046409413 -0.054976933 -0.07965895
00000000: b498 06bb 7941 f6bc b61c a23d 445b 383d
00000010: 5f6a bfbd e5a6 8bbd a914 febd a71b a0bb
00000020: f041 b2bc d147 e4bc e746 3dbd 7444 c33b
00000030: 8314 b8bd 1c38 5e3c 6a3d c1bd 5617 933d
00000040: 08f1 33bd 96f3 243d aa26 fabd f3dc 903d
00000050: 7dd0 693d ca7b 99bc 9cfe 6b3d c01c 033d
00000060: b8e0 89bd d144 b23c a1bb c53d dcd1 ddbb
00000070: 5ff2 32bd c490 b43d d8d2 0cbe 49a4 34bd
00000080: d417 2d3e 9c71 0cbd 6514 2f3d 84c8 683c
00000090: b0ea 34bd 4627 453d 4b0b ebbc 6c4e 723b
000000a0: 3904 a63d 8fec 1e3d 2daf 90bd 0882 77bd
000000b0: 9288 38bc 4e77 60bd c12a b139 218e 08be
000000c0: 5e12 1bbe 2eb6 713d dcf6 153e abc7 d03d
000000d0: a3d4 aabd 5448 39be b2f0 27bd 665c 033d
000000e0: 9b12 f83c 016f 093d 89d6 59bd e56c 8abd
000000f0: 6f54 113d 3f93 713d 3a9b 2bbc 2acf 133e
00000100: ab8f 223b 0d6e 993d 00db d2bd 0d07 bb3d
00000110: 6e85 513c 6304 b5bd fdf2 173d abd2 f3bd
00000120: 8569 2a3d d8ec b13b d3ff 783d 3b7f 49bc
00000130: 5931 e7bd cf49 8f3c 36dc c0bd b9a3 843c
00000140: 2dd3 ce3c e9e8 ac3c 44bb 86ba 8e4d 1fbd
00000150: 315f c63d 3965 3abd 0cc7 703d 8e1c 6a3d
00000160: b14b 453d 0b0b ebbd 7dff b0bc c8b8 f83c
00000170: 5b28 0f3d 1fbe f0bb 8c1a bcbd c762 58bd
00000180: 3106 c8bd 6d48 a23d 1217 6b3d 56a3 923d
00000190: 7cdd 87ba 35bf 963d 5bac 8abc 246f 8ebd
000001a0: 01af 9c3d 9392 bfbd 36ba 15bd e0e3 babd
000001b0: 6fb0 513d 0c34 c13d 0a4c a53c 0ff7 a73d
000001c0: 1b24 a9bc c6ed a83d 7156 7fbd 0093 48bd
000001d0: d6db 91bd 2e96 1fbd 8b1d 1c3d 56fa 01bd
000001e0: b9ad c9bd 8b19 d3bd 6a13 9cbc 7ae6 7dbd
000001f0: c1f6 223d 5c5f 4d3d 9c85 823c 1ed2 693b
00000200: 818e 1a3d c90b bebc e39d b5bb 5a0d 483c
00000210: 0f88 fcbc db57 473b 6617 44bd d7f8 c73d
00000220: 16e8 98bd ecde 75bd 7120 57bc a3c6 92bd
00000230: dc48 cebc 23ff 783d 9b52 603d 387f e4bc
00000240: 6266 79bc 31e9 7f3d ff60 7a3d 785e 2abd
00000250: 9338 8fbb 1143 30bd 3e51 213b 07dd 88bd
00000260: fa0a e6bd 7a19 953d c780 46bd 8848 973c
00000270: 2654 e8bc bdd3 2abd cb32 4f3d 3ec3 813d
00000280: efb5 5dbc f896 d9bd 7ef5 f4bd 2bed bdbc
00000290: 6bfe 74bc 348b a5bd 5391 dcbd 26ec 9fbd
000002a0: 813e 4d3d 0fb5 7abb 1d75 8dbd 1e85 00be
000002b0: 6ddb 8c3d 55bf b53c c1a9 c0bc f3a4 b03c
000002c0: ca57 96bd 5d19 5abc 6af0 b93d d58c 2e3d
000002d0: e014 963d 8cbc b2bc 1a1f b8bd 4fb6 493c
000002e0: 904d 20bc 0a6b 233b 6088 8e3c 9227 34bd
000002f0: 9387 cbbd edf9 a3bc 183b a0bd 087d a33d
00000300: 083b eabc 3a5f bdbd d78f 2e3d 4d76 82bd
00000310: 48b6 92bd e1a1 a83d 80b5 b63d 33e8 8ebd
00000320: 50e7 acbd 1fce a73d 42ae a2bd 6473 aa3b
00000330: 03be 92bd a811 8bbd 86a2 4cbd 15ae 523d
00000340: 6424 a13b 383b 8c3d cbdf 793d 4ab4 8a3c
00000350: b846 133c be51 bebd 4b83 c93b b604 b9bd
00000360: 8276 8b3d d117 8c3d bc88 4ebd 6882 85bd
00000370: 9024 a5bc 38eb b9bb 81fe 93bd 62b9 cdbd
00000380: c3ec fcbd 928e abbd 9bac e0bd 50f3 9b3c
00000390: e784 d4bb 55c2 343b 2f8c aebc 3d76 a5bd
000003a0: 1c1e 80bd 7936 2fbd 519b 68bd 22bb 36bc
000003b0: 68af 173d f00e b7bd d748 d03d d75f 07bc
000003c0: ead8 2cba 0827 e9bd 275e 49bd 1074 c6bd
000003d0: c9ee d33c d4eb 02bd 5d70 0a3d 5267 3a3d
000003e0: a5f8 4f3d b95c 8a3c 9d3d aebd 207d af3c
000003f0: 23c9 2ebd cc17 3ebd 7e2f 61bd 3b24 a3bd

l1.bias f4 [64]
-0.12998718 -0.1478635 -0.04513207 -0.09188966 -0.33356646 0.046047766 -0.1156839 0.010444731
-0.13676982 -0.10316806 0.052826 0.005984928 -0.13903804 6.3452986e-05 -0.2030064 -0.07406165
-0.0685239 0.06312519 -0.121889256 -0.009890441 -0.09654843 -0.16968508 -0.1855588 -0.13462381
0.038768213 0.08851769 -0.18267581 -0.06676887 -0.116474256 -0.10191062 -0.058943238 0.017157419
-0.35460737 -0.025257403 0.02981555 0.058625802 -0.19491743 -0.056402277 -0.0015168634 -0.021504296
-0.031814616 0.056100395 -0.13717696 -0.17034587 -0.099869765 -0.11818365 -0.14418383 -0.09315383
-0.017560055 -0.098028086 -0.04263644 -0.109683454 0.07401189 -0.032217737 -0.06118235 -0.052244645
-0.14243147 0.026842635 -0.027162096 0.008285522 -0.07490179 -0.067599885 0.054764576 -0.085393146
00000000: 5c1b 05be 8869 17be 68dc 38bd a530 bcbd
00000010: 39c9 aabe 959c 3c3d aeeb ecbd 6120 2b3c
00000020: 630d 0cbe c749 d3bd 1360 583d 371d c43b
00000030: fd5f 0ebe 1012 8538 e9e0 4fbe a2ad 97bd
00000040: 4256 8cbd c847 813d 13a1 f9bd 840b 22bc
00000050: 2fbb c5bd edc1 2dbe 2003 3ebe d3da 09be
00000060: 6bcb 1e3d c348 b53d 5e0f 3bbe 1ebe 88bd
00000070: 0e8a eebd 84b6 d0bd 776e 71bd b78d 8c3c
00000080: 198f b5be 9de8 cebc be3f f43c 9c21 703d
00000090: 6f98 47be 1306 67bd 7dd1 c6ba c729 b0bc
000000a0: 0b50 02bd 87c9 653d 1e78 0cbe 266f 2ebe
000000b0: 8588 ccbd 450a f2bd eda4 13be 6fc7 bebd
000000c0: 1bda 8fbc f3c2 c8bd 8ca3 2ebd b8a1 e0bd
000000d0: 8c93 973d bff6 03bd 589a 7abd 7bfe 55bd
000000e0: 8ed9 11be 16e5 db3c 0b83 debc 00c0 073c
000000f0: 1c66 99bd cf71 8abd d250 603d 9ae2 aebd

l2.weight f4 [2, 64]
-0.047684778 -0.07277368 0.041210685 0.037513845 -0.09325987 -0.08404062 -0.011663943 -0.08192827
-0.023099434 -0.036555715 -0.055863433 -0.09024327 -0.06281327 -0.000865085 0.14953037 0.05339439
-0.033571757 -0.011411814 0.0732436 -0.01706826 -0.008297623 0.085481994 0.011425307 0.01695467
0.019841537 -0.0038252473 0.0033594482 0.13203138 0.06608433 0.037001926 0.10515022 -0.06478093
-0.026924865 -0.063950956 -0.02095402 -0.02184866 -0.04547953 0.15428202 0.08672542 0.0035267982
-0.013452601 0.08894645 -0.054830406 -5.1857533e-05 0.07024029 0.01119719 0.0760786 0.048684187
-0.02486135 -0.101836674 -0.09039795 -0.011420508 0.015308629 0.06425173 -0.0005259344 -0.012458243
0.02704654 0.0018669674 -0.027398862 -0.04415874 -0.008650605 -0.08684017 -0.023111027 -0.05579325
-0.06138528 -0.0064796605 0.036847178 0.118532486 -0.029704507 -0.12482109 0.09024237 -0.033834867
0.067419924 -0.01619547 -0.055604037 -0.037720095 -0.12566376 0.06023724 0.048732873 -0.068554774
-0.019051505 0.03865737 0.050007973 0.11485969 -0.06495201 0.068462014 0.07343786 0.07413551
0.06488348 0.0092975795 -0.009544931 -0.20709625 0.041059215 0.0943388 0.092676654 0.12293977
0.10742215 -0.038876597 -0.054543413 -0.036906652 0.0071870205 -0.13578686 0.033841804 0.0197066
-0.083631776 0.04654566 -0.11736113 -0.0067824037 0.06863504 -0.058165178 -0.085267514 -0.016902994
0.028429102 -0.031947818 -0.08211424 -0.01953346 0.06774654 -0.08056145 -0.063912965 -0.03226971
0.06595683 -0.010798367 0.019670922 0.017382467 -0.03253113 -0.020263398 0.013410698 -0.05178218
00000000: 1d51 43bd 5e0a 95bd 89cc 283d 1ea8 193d
00000010: 08ff bebd 7d1d acbd 1f1a 3fbc 02ca a7bd
00000020: 063b bdbc 72bb 15bd 0ed1 64bd 77d1 b8bd
00000030: 3ea4 80bd dfc6 62ba 7d1e 193e 13b4 5a3d
00000040: 8a82 09bd 9ef8 3abc be00 963d bcd2 8bbc
00000050: c1f2 07bc 2f11 af3d 3631 3b3c 85e4 8a3c
00000060: b88a a23c 00b1 7abb 302a 5c3b 3c33 073e
00000070: 3957 873d 558f 173d 0059 d73d ddab 84bd
00000080: 8991 dcbc b8f8 82bd c4a7 abbc f6fb b2bc
00000090: be48 3abd 1bfc 1d3e 199d b13d db21 673b
000000a0: 4c68 5cbc 8e29 b63d d995 60bd 9a81 59b8
000000b0: 24da 8f3d 6b74 373c 19cf 9b3d 1269 473d
000000c0: 08aa cbbc bf8f d0bd 8f22 b9bd 151d 3bbc
000000d0: 0bd1 7a3c 6996 833d dcde 09ba a91d 4cbc
000000e0: b590 dd3c 08b5 f43a 9473 e0bc ccdf 34bd
000000f0: 44bb 0dbc 42d9 b1bd 5653 bdbc 7787 64bd
00000100: 226f 7bbd 5553 d4bb 11ed 163d 29c1 f23d
00000110: de56 f3bc 33a2 ffbd fed0 b83d 6e96 0abd
00000120: 7513 8a3d 5dac 84bc 0fc1 63bd 6380 1abd
00000130: 00ae 00be 53bb 763d 1f9c 473d 7266 8cbd
00000140: e711 9cbc 3157 1e3d 29d5 4c3d 8f3b eb3d
00000150: 8f05 85bd d035 8c3d 9766 963d 5cd4 973d
00000160: a1e1 843d e054 183c 5862 1cbc 0a11 54be
00000170: b52d 283d b334 c13d 42cd bd3d d9c7 fb3d
00000180: 2500 dc3d 113d 1fbd ea68 5fbd 6e2b 17bd
00000190: 1981 eb3b b60b 0bbe b49d 0a3d bc6f a13c
000001a0: 2347 abbd a9a6 3e3d 085b f0bd ed3e debb
000001b0: 8790 8c3d 9c3e 6ebd bca0 aebd 2678 8abc
000001c0: 26e4 e83c b7db 02bd 832b a8bd a204 a0bc
000001d0: b3be 8a3d 67fd a4bd cde4 82bd 3e2d 04bd
000001e0: 6014 873d a2eb 30bc ea24 a13c ad65 8e3c
000001f0: 5d3f 05bd 6dff a5bc 8bb8 5b3c 8d19 54bd

l2.bias f4 [2]
-0.10766934 0.08425508
00000000: be81 dcbd ed8d ac3d
